…
[2022-01-14 23:23:20,845: INFO: 01_base_model_creation]: 
********************
[2022-01-14 23:23:20,845: INFO: 01_base_model_creation]: >>>>> stage creating base model started <<<<<
[2022-01-14 23:23:20,846: INFO: common]: yaml file: configs/config.yaml loaded successfully
[2022-01-14 23:23:21,657: INFO: 01_base_model_creation]: base model summary: 
 Model: "sequential"
_________________________________________________________________
Layer (type)                 Output Shape              Param #   
=================================================================
input_layer (Flatten)        (None, 784)               0         
_________________________________________________________________
hidden_layer_1 (Dense)       (None, 300)               235500    
_________________________________________________________________
leaky_re_lu (LeakyReLU)      (None, 300)               0         
_________________________________________________________________
hidden_layer_2 (Dense)       (None, 100)               30100     
_________________________________________________________________
leaky_re_lu_1 (LeakyReLU)    (None, 100)               0         
_________________________________________________________________
output_layer (Dense)         (None, 10)                1010      
=================================================================
Total params: 266,610
Trainable params: 266,610
Non-trainable params: 0
_________________________________________________________________

[2022-01-14 23:23:57,385: INFO: common]: created directory at: artifacts\models
[2022-01-14 23:23:57,426: INFO: 01_base_model_creation]: the base model is saved at artifacts\models\base_model.h5
…
[2022-01-15 14:29:32,178: INFO: 02_transfer_learning_evnodd]: 
********************
[2022-01-15 14:29:32,178: INFO: 02_transfer_learning_evnodd]: >>>>> stage transfer learning started <<<<<
[2022-01-15 14:29:32,179: INFO: common]: yaml file: configs/config.yaml loaded successfully
[2022-01-15 14:29:33,507: INFO: 02_transfer_learning_evnodd]: loaded base model summary: 
Model: "sequential"
_________________________________________________________________
Layer (type)                 Output Shape              Param #   
=================================================================
input_layer (Flatten)        (None, 784)               0         
_________________________________________________________________
hidden_layer_1 (Dense)       (None, 300)               235500    
_________________________________________________________________
leaky_re_lu (LeakyReLU)      (None, 300)               0         
_________________________________________________________________
hidden_layer_2 (Dense)       (None, 100)               30100     
_________________________________________________________________
leaky_re_lu_1 (LeakyReLU)    (None, 100)               0         
_________________________________________________________________
output_layer (Dense)         (None, 10)                1010      
=================================================================
Total params: 266,610
Trainable params: 266,610
Non-trainable params: 0
_________________________________________________________________

[2022-01-15 14:29:33,528: INFO: 02_transfer_learning_evnodd]: loaded base model summary: 
Model: "sequential"
_________________________________________________________________
Layer (type)                 Output Shape              Param #   
=================================================================
input_layer (Flatten)        (None, 784)               0         
_________________________________________________________________
hidden_layer_1 (Dense)       (None, 300)               235500    
_________________________________________________________________
leaky_re_lu (LeakyReLU)      (None, 300)               0         
_________________________________________________________________
hidden_layer_2 (Dense)       (None, 100)               30100     
_________________________________________________________________
leaky_re_lu_1 (LeakyReLU)    (None, 100)               0         
_________________________________________________________________
output_layer (Dense)         (None, 2)                 202       
=================================================================
Total params: 265,802
Trainable params: 202
Non-trainable params: 265,600
_________________________________________________________________

[2022-01-15 14:29:33,564: INFO: 02_transfer_learning_evnodd]: >>>>> stage transfer learning completed!<<<<<

[2022-01-15 15:51:04,466: INFO: 02_transfer_learning_evnodd]: 
********************
…
